…
      "photoUrl": "https://lh3.googleusercontent.com/a-/AOh14GiELCr-zUeJWuHT3llF5XfHH7B3tmxiSDlls6hF=s64",
      "userId": "00228704477903575446"
     },
     "user_tz": -120
    },
    "id": "9Mca9c5J2EAJ",
    "outputId": "ebb2d1da-6a94-4972-f459-f695f53a43e9"
   },
   "outputs": [
    {
     "name": "stdout",
     "output_type": "stream",
     "text": [
      "Model: \"sequential_7\"\n",
      "_________________________________________________________________\n",
      "Layer (type)                 Output Shape              Param #   \n",
      "=================================================================\n",
      "reshape (Reshape)            (None, 28, 28, 1)         0         \n",
      "_________________________________________________________________\n",
      "conv2d (Conv2D)              (None, 28, 28, 12)        120       \n",
      "_________________________________________________________________\n",
      "conv2d_1 (Conv2D)            (None, 14, 14, 24)        10392     \n",
      "_________________________________________________________________\n",
      "conv2d_2 (Conv2D)            (None, 7, 7, 32)          27680     \n",
      "_________________________________________________________________\n",
      "flatten (Flatten)            (None, 1568)              0         \n",
      "_________________________________________________________________\n",
      "dense_21 (Dense)             (None, 200)               313800    \n",
      "_________________________________________________________________\n",
      "dense_22 (Dense)             (None, 10)                2010      \n",
      "=================================================================\n",
      "Total params: 354,002\n",
      "Trainable params: 354,002\n",
      "Non-trainable params: 0\n",
      "_________________________________________________________________\n"
     ]
    }
   ],
   "source": [
    "model = tf.keras.Sequential(\n",
    "  [\n",
    "      tf.keras.layers.Reshape(input_shape=(28*28,), target_shape=(28, 28, 1)),\n",
…
      "photoUrl": "https://lh3.googleusercontent.com/a-/AOh14GiELCr-zUeJWuHT3llF5XfHH7B3tmxiSDlls6hF=s64",
      "userId": "00228704477903575446"
     },
     "user_tz": -120
    },
    "id": "fUimAh8J_jYY",
    "outputId": "6d0c9967-7238-492a-f5d5-c1023c4ca71f"
   },
   "outputs": [
    {
     "name": "stdout",
     "output_type": "stream",
     "text": [
      "Model: \"sequential_8\"\n",
      "_________________________________________________________________\n",
      "Layer (type)                 Output Shape              Param #   \n",
      "=================================================================\n",
      "reshape_1 (Reshape)          (None, 28, 28, 1)         0         \n",
      "_________________________________________________________________\n",
      "conv2d_3 (Conv2D)            (None, 28, 28, 12)        120       \n",
      "_________________________________________________________________\n",
      "conv2d_4 (Conv2D)            (None, 14, 14, 24)        10392     \n",
      "_________________________________________________________________\n",
      "conv2d_5 (Conv2D)            (None, 7, 7, 32)          27680     \n",
      "_________________________________________________________________\n",
      "flatten_1 (Flatten)          (None, 1568)              0         \n",
      "_________________________________________________________________\n",
      "dense_23 (Dense)             (None, 200)               313800    \n",
      "_________________________________________________________________\n",
      "dropout_3 (Dropout)          (None, 200)               0         \n",
      "_________________________________________________________________\n",
      "dense_24 (Dense)             (None, 10)                2010      \n",
      "=================================================================\n",
      "Total params: 354,002\n",
      "Trainable params: 354,002\n",
      "Non-trainable params: 0\n",
      "_________________________________________________________________\n"
     ]
    }
   ],
   "source": [
    "model = tf.keras.Sequential(\n",
    "  [\n",
    "      tf.keras.layers.Reshape(input_shape=(28*28,), target_shape=(28, 28, 1)),\n",
…
      "photoUrl": "https://lh3.googleusercontent.com/a-/AOh14GiELCr-zUeJWuHT3llF5XfHH7B3tmxiSDlls6hF=s64",
      "userId": "00228704477903575446"
     },
     "user_tz": -120
    },
    "id": "qPXKH96-_i4V",
    "outputId": "2503258b-6380-4385-edf0-2a3d95130431"
   },
   "outputs": [
    {
     "name": "stdout",
     "output_type": "stream",
     "text": [
      "Model: \"sequential_9\"\n",
      "_________________________________________________________________\n",
      "Layer (type)                 Output Shape              Param #   \n",
      "=================================================================\n",
      "reshape_2 (Reshape)          (None, 28, 28, 1)         0         \n",
      "_________________________________________________________________\n",
      "conv2d_6 (Conv2D)            (None, 28, 28, 12)        108       \n",
      "_________________________________________________________________\n",
      "batch_normalization (BatchNo (None, 28, 28, 12)        36        \n",
      "_________________________________________________________________\n",
      "activation (Activation)      (None, 28, 28, 12)        0         \n",
      "_________________________________________________________________\n",
      "conv2d_7 (Conv2D)            (None, 14, 14, 24)        10368     \n",
      "_________________________________________________________________\n",
      "batch_normalization_1 (Batch (None, 14, 14, 24)        72        \n",
      "_________________________________________________________________\n",
      "activation_1 (Activation)    (None, 14, 14, 24)        0         \n",
      "_________________________________________________________________\n",
      "conv2d_8 (Conv2D)            (None, 7, 7, 32)          27648     \n",
      "_________________________________________________________________\n",
      "batch_normalization_2 (Batch (None, 7, 7, 32)          96        \n",
      "_________________________________________________________________\n",
      "activation_2 (Activation)    (None, 7, 7, 32)          0         \n",
      "_________________________________________________________________\n",
      "flatten_2 (Flatten)          (None, 1568)              0         \n",
      "_________________________________________________________________\n",
      "dense_25 (Dense)             (None, 200)               313600    \n",
      "_________________________________________________________________\n",
      "batch_normalization_3 (Batch (None, 200)               600       \n",
      "_________________________________________________________________\n",
      "activation_3 (Activation)    (None, 200)               0         \n",
      "_________________________________________________________________\n",
      "dropout_4 (Dropout)          (None, 200)               0         \n",
      "_________________________________________________________________\n",
      "dense_26 (Dense)             (None, 10)                2010      \n",
      "=================================================================\n",
      "Total params: 354,538\n",
      "Trainable params: 354,002\n",
      "Non-trainable params: 536\n",
      "_________________________________________________________________\n"
     ]
    }
   ],
   "source": [
    "model = tf.keras.Sequential(\n",
    "  [\n",
    "      tf.keras.layers.Reshape(input_shape=(28*28,), target_shape=(28, 28, 1)),\n",
…
